…
Dataset preprocessing...:  90%|█████████ | 175/194 [00:02<00:00, 63.22it/s]
Dataset preprocessing...:  94%|█████████▍| 182/194 [00:03<00:00, 61.17it/s]
Dataset preprocessing...:  97%|█████████▋| 189/194 [00:03<00:00, 54.22it/s]
Dataset preprocessing...: 100%|██████████| 194/194 [00:03<00:00, 56.97it/s]
train data :  71404
valid data :  16010
test data :  23937
-----------------------------------------------------------------------------------
           Layer (type)                Input Shape         Param #     Tr. Param #
===================================================================================
           NoiseLayer-1                [1, 21, 24]               0               0
               Linear-2                [1, 21, 24]           3,200           3,200
   PositionalEncoding-3               [21, 1, 128]               0               0
   TransformerEncoder-4     [21, 1, 128], [21, 21]         793,088         793,088
               Linear-5                  [1, 2688]       1,032,576       1,032,576
               Linear-6                [1, 3, 128]           8,256           8,256
            LayerNorm-7                 [1, 3, 64]             128             128
                 ReLU-8                 [1, 3, 64]               0               0
               Linear-9                 [1, 3, 64]           4,160           4,160
           LayerNorm-10                 [1, 3, 64]             128             128
                ReLU-11                 [1, 3, 64]               0               0
              Linear-12                 [1, 3, 64]             650             650
===================================================================================
Total params: 1,842,186
Trainable params: 1,842,186
Non-trainable params: 0
Batch size: 1
-----------------------------------------------------------------------------------

training process:   0%|          | 0/32 [00:00<?, ?it/s]
training process:   3%|▎         | 1/32 [03:31<1:49:23, 211.72s/it]epoch : 1, train loss : 19.867, valid loss : 15.604,
…
Dataset preprocessing...:  92%|█████████▏| 179/194 [00:03<00:00, 56.34it/s]
Dataset preprocessing...:  95%|█████████▌| 185/194 [00:03<00:00, 53.00it/s]
Dataset preprocessing...:  98%|█████████▊| 191/194 [00:03<00:00, 49.52it/s]
Dataset preprocessing...: 100%|██████████| 194/194 [00:03<00:00, 51.20it/s]
train data :  72169
valid data :  16195
test data :  24177
-----------------------------------------------------------------------------------
           Layer (type)                Input Shape         Param #     Tr. Param #
===================================================================================
           NoiseLayer-1                [1, 21, 24]               0               0
               Linear-2                [1, 21, 24]           3,200           3,200
   PositionalEncoding-3               [21, 1, 128]               0               0
   TransformerEncoder-4     [21, 1, 128], [21, 21]         793,088         793,088
               Linear-5                  [1, 2688]         344,192         344,192
               Linear-6                [1, 1, 128]           8,256           8,256
            LayerNorm-7                 [1, 1, 64]             128             128
                 ReLU-8                 [1, 1, 64]               0               0
               Linear-9                 [1, 1, 64]           4,160           4,160
           LayerNorm-10                 [1, 1, 64]             128             128
                ReLU-11                 [1, 1, 64]               0               0
              Linear-12                 [1, 1, 64]             650             650
===================================================================================
Total params: 1,153,802
Trainable params: 1,153,802
Non-trainable params: 0
Batch size: 1
-----------------------------------------------------------------------------------

training process:   0%|          | 0/128 [00:00<?, ?it/s]
training process:   1%|          | 1/128 [03:58<8:25:35, 238.86s/it]epoch : 1, train loss : 7.880, valid loss : 6.410,
…
00:08<00:01, 67.32it/s]Dataset preprocessing...:  86%|████████▌ | 532/620 [00:08<00:01, 65.85it/s]Dataset preprocessing...:  87%|████████▋ | 539/620 [00:08<00:01, 63.76it/s]Dataset preprocessing...:  88%|████████▊ | 546/620 [00:08<00:01, 62.73it/s]train data :  72999
valid data :  16412
test data :  24438
-----------------------------------------------------------------------------------
           Layer (type)                Input Shape         Param #     Tr. Param #
===================================================================================
           NoiseLayer-1                [1, 16, 24]               0               0
               Linear-2                [1, 16, 24]           1,600           1,600
                 ReLU-3                [1, 16, 64]               0               0
               Linear-4                [1, 16, 64]           8,320           8,320
   PositionalEncoding-5               [16, 1, 128]               0               0
   TransformerEncoder-6     [16, 1, 128], [16, 16]         793,088         793,088
               Linear-7               [1, 16, 128]           3,096           3,096
               Linear-8                [1, 24, 16]              68              68
               Linear-9                 [1, 4, 24]             250             250
===================================================================================
Total params: 806,422
Trainable params: 806,422
Non-trainable params: 0
Batch size: 1
-----------------------------------------------------------------------------------
training process:   0%|          | 0/128 [00:00<?, ?it/s]Dataset preprocessing...:  89%|████████▉ | 553/620 [00:09<00:01, 56.37
…
et preprocessing...:  93%|█████████▎| 180/194 [00:03<00:00, 51.23it/s]Dataset preprocessing...:  96%|█████████▌| 186/194 [00:03<00:00, 47.10it/s]Dataset preprocessing...:  98%|█████████▊| 191/194 [00:03<00:00, 46.43it/s]Dataset preprocessing...: 100%|██████████| 194/194 [00:04<00:00, 47.20it/s]
train data :  72999
valid data :  16412
test data :  24438
-----------------------------------------------------------------------
      Layer (type)         Input Shape         Param #     Tr. Param #
=======================================================================
     EncoderTree-1         [1, 16, 24]          98,112          98,112
          Conv1d-2         [1, 16, 24]              64              64
          Linear-3          [1, 4, 24]             425             425
            ReLU-4          [1, 4, 17]               0               0
          Linear-5          [1, 4, 17]             180             180
=======================================================================
Total params: 98,781
Trainable params: 98,781
Non-trainable params: 0
Batch size: 1
-----------------------------------------------------------------------
training process:   0%|          | 0/128 [00:00<?, ?it/s]epoch : 1, train loss : 364.643, valid loss : 178.390,
training process:   1%|          | 1/128 [04:45<10:04:54, 285.78s/it]epoch : 1, train loss : 45.449, valid loss : 25.629,
…
