…
0:02<00:00, 63.22it/s]Dataset preprocessing...:  94%|█████████▍| 182/194 [00:03<00:00, 61.17it/s]Dataset preprocessing...:  97%|█████████▋| 189/194 [00:03<00:00, 54.22it/s]Dataset preprocessing...: 100%|██████████| 194/194 [00:03<00:00, 56.97it/s]
train data :  71404
valid data :  16010
test data :  23937
-----------------------------------------------------------------------------------
           Layer (type)                Input Shape         Param #     Tr. Param #
===================================================================================
           NoiseLayer-1                [1, 21, 24]               0               0
               Linear-2                [1, 21, 24]           3,200           3,200
   PositionalEncoding-3               [21, 1, 128]               0               0
   TransformerEncoder-4     [21, 1, 128], [21, 21]         793,088         793,088
               Linear-5                  [1, 2688]       1,032,576       1,032,576
               Linear-6                [1, 3, 128]           8,256           8,256
            LayerNorm-7                 [1, 3, 64]             128             128
                 ReLU-8                 [1, 3, 64]               0               0
               Linear-9                 [1, 3, 64]           4,160           4,160
           LayerNorm-10                 [1, 3, 64]             128             128
                ReLU-11                 [1, 3, 64]               0               0
              Linear-12                 [1, 3, 64]             650             650
===================================================================================
Total params: 1,842,186
Trainable params: 1,842,186
Non-trainable params: 0
Batch size: 1
-----------------------------------------------------------------------------------
training process:   0%|          | 0/32 [00:00<?, ?it/s]training process:   3%|▎         | 1/32 [03:31<1:49:23, 211.72s/it]epoch : 1, train loss : 19.867, valid loss : 15.604,
…
0:03<00:00, 56.34it/s]Dataset preprocessing...:  95%|█████████▌| 185/194 [00:03<00:00, 53.00it/s]Dataset preprocessing...:  98%|█████████▊| 191/194 [00:03<00:00, 49.52it/s]Dataset preprocessing...: 100%|██████████| 194/194 [00:03<00:00, 51.20it/s]
train data :  72169
valid data :  16195
test data :  24177
-----------------------------------------------------------------------------------
           Layer (type)                Input Shape         Param #     Tr. Param #
===================================================================================
           NoiseLayer-1                [1, 21, 24]               0               0
               Linear-2                [1, 21, 24]           3,200           3,200
   PositionalEncoding-3               [21, 1, 128]               0               0
   TransformerEncoder-4     [21, 1, 128], [21, 21]         793,088         793,088
               Linear-5                  [1, 2688]         344,192         344,192
               Linear-6                [1, 1, 128]           8,256           8,256
            LayerNorm-7                 [1, 1, 64]             128             128
                 ReLU-8                 [1, 1, 64]               0               0
               Linear-9                 [1, 1, 64]           4,160           4,160
           LayerNorm-10                 [1, 1, 64]             128             128
                ReLU-11                 [1, 1, 64]               0               0
              Linear-12                 [1, 1, 64]             650             650
===================================================================================
Total params: 1,153,802
Trainable params: 1,153,802
Non-trainable params: 0
Batch size: 1
-----------------------------------------------------------------------------------
training process:   0%|          | 0/128 [00:00<?, ?it/s]training process:   1%|          | 1/128 [03:58<8:25:35, 238.86s/it]epoch : 1, train loss : 7.880, valid loss : 6.410,
…
